predictor_model.pth (torch, 666584 bytes, 6 tensors)

weight f4 [256, 512]
00000000: 6966 8d3c ad3e 03bb 1f9d a8bd 86e9 bb3c
00000010: 5ac9 d6bc a879 86bc ebc7 b6bd 8a31 0fbd
00000020: 9fa8 5fbe 6e48 d43d 47fe 02be e3aa 573d
00000030: dc34 f7bb 3212 08bd be2d 413c 6778 25be
00000040: ba97 d3bd b191 b2bb 5717 b0bc e5b8 bc3d
00000050: 228d bd3d 774a 3ebb b86e fabc eb6e c2bd
00000060: 5fc8 91bd 0e08 bdbd b8a1 b9bc 2395 373e
00000070: 6980 1fbd 5482 dcba 7921 c0bc 294f 25be
00000080: 5053 12be 3351 423b 9365 dbbd 7d0e 253c
00000090: 3b8b 583c 8811 e3ba 46c3 69bd cc58 cbbd
000000a0: 991e b03d 7c7f c73d 5a4e 86bd 3583 063c
000000b0: 37d1 133d 96d1 32bc 2eae 93bd a582 8f3c
000000c0: c585 37bd f013 463d 46a9 843c bd13 7abd
000000d0: 2353 d0bd 0139 dabd 8508 263d 01d8 cebd
000000e0: c261 39bb 5e3f 583c 67bb dc3c 2f6a 33be
000000f0: a274 093b 7bfc d23d d061 95bd 2b3e 34bd
00000100: 1ad2 7ebd e9db 703d 0973 253d 4bfb 33bd
00000110: 2569 b7bd fe92 b13c 993f 923d 51e6 3ebd
00000120: a163 68bd bccd 873d a8ff ca3c eb1c d73c
00000130: a473 c2bc efbd 81bd 9d5f 0ebe fe6a 263c
00000140: 514b eebd a019 1d3c 257f e4bb e88c 1f3d
00000150: 82c1 11be 767a 0bbe a260 e3bd 74ed cc3d
00000160: 9ab1 07bc 0315 76bc a938 e1bd cdb6 fbbd
00000170: 55be 583d aa27 68bd 01df 7cbc fea0 b33d
00000180: 9ae4 853e 6fbe d13b 7c3e 0bbe 5f59 bc3c
00000190: e9a8 76bd 6aa5 0c3e d616 cd3b eb63 fbbd
000001a0: 739f aa3d ad64 a4bb b3cd 8c3c 58cc 1fbe
000001b0: 2be7 e7bd 84eb 763c 63d4 eebd 8cea 17bd
000001c0: 0559 f13d e69f b6bb 1b45 18bc 6649 3e3b
000001d0: b864 173c 6b0e 1bbe 1467 ffbd ed9e 96bd
000001e0: 7c63 dcbc f43d 0d3d c450 81bd 640e 76bd
000001f0: cc05 53bd 6c7b f13c b49f 453e e07c eb3d
00000200: c452 dbbc edee 553c 2f48 833c 385b c5bd
00000210: 26df 53bc 71b3 93bd d722 d23c 9aa9 793d
00000220: bf86 32bd 9532 b5bd e368 0b3c 8132 66bd
00000230: 14fb b43c 8ea7 893d b613 f3bc 1719 29bd
00000240: 0f7d 53bd d085 29be 5762 fb3c a2cc 67bd
00000250: 5153 12bd ee1b 8bbd 57d9 ffba 7bc4 99bd
00000260: 0f31 dfbd 5b32 7abd 7394 873d 6c01 ec3d
00000270: b061 943c ec89 06be dcb6 29bd 26a8 54bc
00000280: be5f e0bd be15 b53b 50f9 edbd a674 7abd
00000290: e5c6 fbbd bbad 4b3c 1bea 713d b9fc 45be
000002a0: a273 47bc 4f63 c6bc fc3c 9abe ba3b 98bd
000002b0: 19d3 64bd 552f 0ebd c307 c5bb fa2f 61bb
000002c0: 56a9 80bd 641d abbc 826c a13c ccc6 fdbd
000002d0: aacb c23b 9ddc c6ba 1293 08bd 3b8e 9dbd
000002e0: 4f89 5c3d fc40 1cbd 375c 3ebd dcf2 1fbe
000002f0: 9c68 0fbd 7299 94bd 6d08 d7bb 8991 88bd
00000300: e6bc 9fbe 26f1 da3c 4135 a0bc 5645 3ebd
00000310: 8256 a8bd 3076 d0bd 2632 043c e02a 4ebc
00000320: e39d 40be f758 a83b efa3 c6bd 9b1c 2f3c
00000330: facf 43bd ad87 943b 00ef bd3d a703 1e3d
00000340: e2b8 40be f2c3 0cbe 189d aabd b490 2ebd
00000350: 556d f73c 02bc f4bc 72c9 493d 839f d43a
00000360: 332b b8bb 9c9c cbbd af6d 03be 5bb4 58bd
00000370: 32af 1abe ccd1 06be 1492 523d 6664 0f3d
00000380: 1cb6 0fbe 58e3 293c 4890 a9bc 522c ebbd
00000390: ef41 0b3d caaf 66bd 90aa ec3d 3f95 57bd
000003a0: d93b d5bd fdac afbc e2e4 b9bd 592f b6bd
000003b0: 8763 8abd 79da e2bd 0ffb 1dbe f381 a6bd
000003c0: f17b 87b9 bdd4 ddbc 21dc 13bd 7b61 bbbd
000003d0: b70d ce3c cc3d de3c bd6d afbc cd5d 15be
000003e0: 1ae1 4ebd cfba e5bb 1019 c03d c2e3 0cbd
000003f0: 2336 923d 1a17 65be 2515 843e 7a2a f7bd
0.017260747 -0.0020026371 -0.082330935 0.022938501 -0.026219059 -0.016415432 -0.0892485 -0.034959354
-0.21841668 0.10365377 -0.12792312 0.052653205 -0.007544143 -0.033220477 0.011790691 -0.16159211
-0.10331674 -0.0054494967 -0.021495504 0.09214953 0.092554346 -0.0029036084 -0.030570373 -0.09493812
-0.07118296 -0.09230052 -0.022660121 0.17927985 -0.03894082 -0.0016823509 -0.023453461 -0.16143478
-0.14289594 0.002965045 -0.10712733 0.010074255 0.013216789 -0.001732395 -0.057070993 -0.09929046
0.08599586 0.097411126 -0.06557913 0.008209993 0.036088195 -0.010914227 -0.072109565 0.01751835
-0.044805307 0.048358858 0.016193997 -0.06105398 -0.10172107 -0.10655404 0.04053547 -0.10099793
-0.0028287028 0.013198702 0.02694483 -0.17520975 0.002097406 0.10302063 -0.07294047 -0.0440046
-0.062212087 0.058803473 0.04039291 -0.043940824 -0.089556016 0.021676537 0.071410365 -0.046606366
-0.05673564 0.066310376 0.02478011 0.026258906 -0.023736782 -0.06335055 -0.13903661 0.010157345
-0.11635459 0.009588629 -0.0069731646 0.038952738 -0.14233974 -0.13620934 -0.111024156 0.10006228
-0.00828209 -0.015019658 -0.10997135 -0.12290726 0.05291589 -0.05667845 -0.015434028 0.08770941
0.26150972 0.0064008753 -0.13598055 0.022991834 -0.06021968 0.13734975 0.006258826 -0.12274917
0.08331194 -0.0050168843 0.017187929 -0.15605295 -0.11323389 0.0150708 -0.11661603 -0.037088916
0.11784557 -0.0055732606 -0.00929382 0.0029035448 0.009240322 -0.15142219 -0.124708325 -0.073545314
-0.026902907 0.03448291 -0.06314233 -0.060072318 -0.0515192 0.029477797 0.19299203 0.114984274
-0.026772864 0.013057453 0.01602563 -0.09636539 -0.012931621 -0.0721196 0.025651379 0.06095276
-0.043585535 -0.088475384 0.008508894 -0.056200508 0.02209238 0.06721412 -0.029672485 -0.041283693
-0.051632937 -0.16554952 0.03068654 -0.056591637 -0.035723988 -0.067924365 -0.0019519728 -0.07508179
-0.10898029 -0.06108318 0.06620111 0.11523709 0.018112987 -0.1313855 -0.041434154 -0.012979543
-0.109557614 0.0055262735 -0.11619818 -0.0611464 -0.122937955 0.012431557 0.05906115 -0.19334687
-0.012173565 -0.024217276 -0.30124652 -0.07433267 -0.05586538 -0.034713108 -0.006012888 -0.0034360872
-0.06282298 -0.020888038 0.01970506 -0.12391433 0.005944689 -0.0015171949 -0.033343382 -0.07693144
0.053841885 -0.03814791 -0.04647466 -0.15619987 -0.035011873 -0.0725583 -0.0065622837 -0.06668384
-0.31198806 0.026726317 -0.019556643 -0.046452843 -0.08219625 -0.101787925 0.008068597 -0.012583464
-0.18810229 0.0051375586 -0.096992366 0.010687972 -0.047805764 0.0045327754 0.09274101 0.038577702
-0.18820527 -0.13746622 -0.083307445 -0.04261847 0.0302035 -0.029874805 0.04926438 0.0016221855
-0.005620384 -0.0994198 -0.1283481 -0.052906375 -0.15105894 -0.13165969 0.051408842 0.035007857
-0.14034313 0.010369144 -0.020698681 -0.11483063 0.033998426 -0.05631999 0.1155597 -0.052632567
-0.10411806 -0.021444792 -0.09076859 -0.088957496 -0.067572646 -0.110768266 -0.15427803 -0.081302546
-0.0002584155 -0.02707898 -0.036098603 -0.09149452 0.025153024 0.027129076 -0.021414632 -0.14586563
-0.050507642 -0.0070107947 0.0937978 -0.034396894 0.07139232 -0.22372094 0.25797382 -0.12068649

bias f4 [256]
00000000: 9ab4 b33d 17e1 a8bd 42c2 a1bd d8b4 183e
00000010: 3832 cdbd 8c57 ad3d 0714 423d c4e6 59bd
00000020: 106a edbb f434 503d aacb 8a3d c8cc d9bc
00000030: d74a d0bd 8fcd 083e 6749 87bd 1845 b83d
00000040: 5aca 9fbd cc32 a0bd 3ab9 a9bd 0c9c 893d
00000050: 4b5b 0a3e b778 aabd 566f da3d b1b0 a7bd
00000060: f321 a23d 03e9 bdbc 2334 183d f27f 923d
00000070: 6056 c63d 40ef 733d 18df 57bd 7c9f 703d
00000080: f743 ff3d 9b34 3fbd d3e8 2cbc 716c a3bd
00000090: 418f febb 4ec0 843d d672 2abd af65 593d
000000a0: 96ae 2ebd e029 493d 9c2e 1fbe cbf1 e23d
000000b0: 9701 3abd f7fb 9b3c 4991 013e c8f5 58bd
000000c0: de20 873d 90f3 4b3d 7bf7 c83d eb5b 813d
000000d0: 3aa7 91bc e65b 55bb cbf0 f13d 30f3 c53d
000000e0: 4308 5e3d 023c 38bb 727e 4abd acaf 5b3d
000000f0: b250 963c 3985 50bd 5af4 05bd 8144 8cbd
00000100: ce98 233d f37d 25bd 9076 d13d 2e83 ac3d
00000110: 1b92 af3d fbb7 70bd 41ff a4bd 9a8b bdbd
00000120: bda8 7cbd ee12 9a3d 603c 42bc eeab 1cbd
00000130: 8903 24bd 1bb8 b93d d53d c13d 027e 973d
00000140: 86ab 8b3d 22dd b13d a44e 1c3e 0208 edbc
00000150: 8691 a53d 7177 e23c 5e5f 2abd 0d47 b73d
00000160: eed5 133d 1b55 45bd daec 40bb 56dc 883d
00000170: 1fda ceba 2516 f1bc 971f 043e f862 713c
00000180: d088 70bd 0e5b a43d e690 923d ac90 b83c
00000190: ccbb 59bd 384b 49bd fb63 8dbd ea1d 0c3d
000001a0: cca3 3f3d b329 7dbd e7c5 6e3d b9f8 0b3e
000001b0: f40d ce3d 5b58 26bd 2c7c debd 7e5b 39bd
000001c0: 65b5 d7bc d80d a73d 9f51 0a3d eb9d 16bd
000001d0: ad3d 67bd c386 0d3e dcc0 cfbc 41dc 423d
000001e0: e128 873c 4cd9 a1bd 54c3 553d 7e08 2cbd
000001f0: 329b 2b3d fc8f dc3d 4fb7 d73c 851e 043e
00000200: 1eab 9ebd 88e7 e83c b2ee 6e3d 5974 94bd
00000210: 27e6 113d 3b76 bc3d e74b 5dbd b026 523d
00000220: 2bef d93c 7122 f93d 411b 7f3d f4c8 b2bd
00000230: 45ab 9f3d eb3d 643c 6b70 38bd 7ed3 32bd
00000240: e6b3 363d 8c6b 30bd 8382 893d f70e 8dbd
00000250: 5d61 cb3a 8beb 89bd 5526 2dbd a8c4 a2bd
00000260: b9b5 093d a5e7 b1bc 14fe a3bd f6ee e93d
00000270: cdd4 143c 5504 92bd 6429 81bc 4179 d33d
00000280: a13f cc3d e634 fb3d ff69 f93c 6440 a7bc
00000290: 0291 683d 3422 56bd 1945 72bc b30f a93c
000002a0: b6e7 b9bd 087f 19bd 30a3 1b3d 72c7 65bd
000002b0: ba36 0f3e f204 4fbc 0a05 4ebd f454 a4bd
000002c0: ed72 bc3d f525 7b3d 5d87 44bd a5fc f83c
000002d0: 484c 07bd 795e 1cbd 9d99 9d3d 4b99 e73c
000002e0: a997 03bd 55a8 7ebd 1ec4 98bd b311 59bd
000002f0: 1c06 c13c a086 80bd 7ae3 923c f73e a1bc
00000300: 7aaa 133c 5e5b 95bc 7484 95bd 8943 9cbd
00000310: 0fdb 5d3d 1cac 7c3c 882a 55bd 30eb 6bbc
00000320: 42f2 15bc 2367 27bd 7867 6cbd aeac aa3d
00000330: bf85 af3d e641 88bd de85 e53c 6fb5 ca3c
00000340: 1285 7fbd 8f80 0c3e 6a73 e0bc b88f fa3d
00000350: 6791 543c b280 8dbd 6038 6fbc 221a b93d
00000360: a48d 003e 16da 95bd 56e5 8dbd 3120 4c3d
00000370: 3fb5 663d de14 46bd 0ba2 7a3d ba82 e23c
00000380: d88a 1abd 7f4c 693d 7ffe 29bd cc9c a03d
00000390: 38c8 6fbb 7aa5 81bc 5eef 7abc 0c6a 94bd
000003a0: bddb ed3d e7f9 fe3d 4b7e 9d3d bf25 50bd
000003b0: 4b5c bbbd 1fc8 f43d fffd c33d ff1b 4d3d
000003c0: 695d c33d 83eb 17bc 9b7d a4bd 3480 993d
000003d0: 272c 943b 3c8d c6bd ade8 6a3c 1587 983d
000003e0: 3ca0 043e 57a8 e03d 71e1 bcbc 719a 083d
000003f0: 7371 8e3d 327a 5bbd e1c3 96bb 9f1c 8bbb
0.087746814 -0.082460575 -0.0789838 0.14912736 -0.10019344 0.08463964 0.04738238 -0.05319859
-0.0072453097 0.05083175 0.06777127 -0.026586905 -0.101705246 0.13359664 -0.06605797 0.089975536
-0.078022674 -0.07822189 -0.08287282 0.06719217 0.13511388 -0.08323806 0.10665767 -0.08187998
0.079166315 -0.023182398 0.037159096 0.0715331 0.096844435 0.05955434 -0.052702993 0.058745846
0.12464135 -0.046681028 -0.0105535565 -0.07979668 -0.007768542 0.06481992 -0.041613422 0.05307549
-0.042646967 0.0491122 -0.15545124 0.110812746 -0.045411672 0.019041045 0.12653078 -0.05296877
0.06598066 0.049792826 0.09812828 0.0631636 -0.017779935 -0.0032555996 0.11813506 0.09665525
0.054207098 -0.002811194 -0.049436994 0.05363433 0.018349025 -0.0509083 -0.032703735 -0.068490036
0.039940648 -0.040403318 0.10227692 0.08423458 0.08572789 -0.058769207 -0.08056498 -0.092551425
-0.06168436 0.07523142 -0.011855215 -0.038249902 -0.040042434 0.090683185 0.09435622 0.07397081
0.06819825 0.08684756 0.15264374 -0.028934482 0.08084397 0.027644845 -0.041594855 0.08949099
0.03609269 -0.048176866 -0.002943805 0.06682651 -0.0015781558 -0.029429505 0.12902676 0.014733069
-0.058724225 0.0802518 0.071565434 0.022529922 -0.053157613 -0.049144 -0.069038354 0.034208216
0.04678707 -0.061807346 0.058294203 0.13669099 0.10061255 -0.040611606 -0.10863528 -0.04525327
-0.026331613 0.08156937 0.033769246 -0.036771696 -0.056455303 0.13820939 -0.025360517 0.04757333
0.016498985 -0.07902774 0.052188233 -0.042000286 0.041896053 0.1076965 0.026332526 0.12902267
-0.07747482 0.028430715 0.058333106 -0.07248754 0.03561988 0.09202238 -0.054027464 0.051306427
0.026603302 0.12164772 0.06228185 -0.08729735 0.07796339 0.013930778 -0.045029085 -0.043658726
0.04460516 -0.043071315 0.06714346 -0.0688762 0.0015516687 -0.067343794 -0.042272884 -0.079476655
0.03362057 -0.021716902 -0.08007446 0.11422531 0.009083939 -0.071297325 -0.015766807 0.10325862
0.09973074 0.12265949 0.03044605 -0.020416446 0.056778915 -0.052278712 -0.014786982 0.020637369
-0.090773985 -0.037474662 0.037997425 -0.05609841 0.1398572 -0.012635456 -0.050297774 -0.08024016
0.09201608 0.061315496 -0.047980655 0.030393908 -0.03303173 -0.038176034 0.07695315 0.028271338
-0.032127056 -0.062172253 -0.074592814 -0.052995395 0.023562483 -0.06275678 0.017930735 -0.019683344
0.009012813 -0.018232044 -0.07300654 -0.07630069 0.05416399 0.015421893 -0.052042514 -0.014399335
-0.009151997 -0.040869843 -0.057715863 0.08333717 0.08570432 -0.06653194 0.028017934 0.024744717
-0.062382765 0.13720916 -0.027398784 0.122344434 0.01297412 -0.06909312 -0.014600843 0.090381876
0.12554032 -0.07316987 -0.06928508 0.049835388 0.056325193 -0.048359744 0.061189692 0.027650226
-0.037730068 0.056957718 -0.041502472 0.07842407 -0.0036587846 -0.015825976 -0.015315859 -0.07246789
0.116141774 0.12450009 0.07690104 -0.050817247 -0.09148463 0.119522326 0.0956993 0.050075527
0.09539301 -0.009272459 -0.0803177 0.07495156 0.004521865 -0.09694907 0.014337701 0.0744764
0.1295175 0.10969608 -0.023056718 0.03335041 0.069552325 -0.05358333 -0.0046009873 -0.0042453553

weight f4 [128, 256]
00000000: 0042 eb3c 9a0b 93bc a960 c4bc 17e3 85be
00000010: 56b5 d53d b6c7 c9be beb9 673d a6dc 96be
00000020: c00c 373d 2007 25be 834d bb3d 24ca 5ebd
00000030: 498a 533d 78d8 d53c 1c31 8e3d 7c1a ec3b
00000040: 8235 4b3d d839 51bc 96b5 7b3c 7d6e 8b3d
00000050: df3c 39bc 7cfa cabc a481 86be 926c 2a3d
00000060: 76d4 113e 03c5 debc a2aa fe3d 9153 babe
00000070: 2163 9f3d e21e e53d 0b2a 64bb 33a5 303d
00000080: 570c 96be d89e 113d aca4 0fbd 27c7 923c
00000090: 7eee 5fbd 7d06 813b 4133 313d 198e 423c
000000a0: d030 dc3c f71c a53d 9963 083d b80a 3dbd
000000b0: cd73 40bd 623b 10be b3d8 74bd a073 473d
000000c0: 016f aebd 418e 2a3e 4818 5cbe 6249 b33d
000000d0: 49a0 093e 8558 813c a15a 51bd 6e22 cc3d
000000e0: f817 adbe 8b91 85be f3cc 61bd 2304 a63d
000000f0: 598b 8abd bf0f 28bd 9e87 bc3c a1b0 053c
00000100: dd67 003c d705 a83d c2fc 06bf 4b23 bebe
00000110: 3a6e 53be 347f aebc 134e b8bc 8dc5 6a3e
00000120: 9c8e aa3b 83ba a3be 2e0d 7b3d cbda f4bb
00000130: cfb6 9a3d 33a0 f5bd abf5 963d e052 8abe
00000140: 3e74 6b3d 0b6a 70bc 263b 06bf 2974 333c
00000150: 2b98 1b3c 52c3 d1bc f93f f23d 2f8e 943c
00000160: 73f1 0abe 00e3 0fba 3800 033e 4267 d6be
00000170: c263 5abd 9bd0 95bd 81fd 24bf d51b 99be
00000180: ecd0 963c 0129 e8bb 65a0 7fbe ecf2 30bb
00000190: 8258 f53c 6237 ce3d 68af 463d e2a6 073e
000001a0: bf3e 9a3c b291 a93d 658b b13c 1d68 c63d
000001b0: 0b49 863d 5eaa 163d bb8e 833c 246c 6f3d
000001c0: 7490 ac3c 31b0 c83c b7cb e4bb 94bf 87bd
000001d0: a870 d33d e2a9 81be 1216 b03c cb27 07be
000001e0: 39e3 493d 79d1 513d 32d2 07bf 3457 f03c
000001f0: f934 31bc 0ccb d6bc 342f 623d 0d9c aa3c
00000200: bf38 24bd b868 b7bc 3fc3 f23d 6d2b 81bd
00000210: 1ff1 373d ed78 8bbc 91b3 53bd 2fd5 9b3e
00000220: 636b 343e 20cd 84bd ebfc 8abe 8728 0dbd
00000230: 9e63 40bd c108 243c 5a36 653d 7e91 553d
00000240: b315 d03d 2487 0ebd 163d 7bbc bd6a c5bc
00000250: 8ec2 3c3e d311 5c3d c0b0 ca3a 4368 df3d
00000260: 7e2c 85bd e9da b53c d3df 5bbd 3064 72bd
00000270: 502d 96bb 8c91 2abc b4f9 863c 1220 c8bd
00000280: 6e5b 073c a898 50be 9ef7 d6be 2a98 483d
00000290: f72a 05bf b34f 993d e88d 93bd 8e3a 383e
000002a0: 55e5 71bc b26a ae3d cc66 823e b5ca 65bd
000002b0: 3161 37be 8c0e f83c b0ce fc3c c98d 673d
000002c0: 745a 3bbe e205 d83d 1d0a 203c daaf 1dbc
000002d0: 8ff0 ac3b 40d4 b4ba 1000 c1bd dcd4 c33c
000002e0: fa31 89ba 0bad 903d 053c 7b3d 7bc4 b23d
000002f0: 8902 a6be 56a5 a23b 7fd6 f43d 8a03 c03d
00000300: f6e5 9dbc 464f 33bd ff81 a93d d5dd 91bc
00000310: a960 403e 9d84 493e 9033 dcbc 7029 c1bb
00000320: 838a d1bc 15de dbbc 3e28 edbd 1ab8 5c3d
00000330: b9f3 a13c a8b6 583c 77b1 a0be 094b cbbe
00000340: 8ecb 393d 74ad dc3c 71d0 2fbd 2e60 58bd
00000350: afe1 9c3e a002 9ebc 1e12 a33b 02e9 fcbd
00000360: ae3a 67bc cb46 9f3d b335 65bd 4499 3d3e
00000370: ca4c f5bc 8c8d 0cbd 8fa6 d8bd 9f84 9f3e
00000380: 9f3e 703d 7348 f03d 9066 a7bc 2690 1c3e
00000390: af9d 96bd fb74 563b 9d6b b13c 60a2 943b
000003a0: 7354 593d 3aed 833c 1504 2bbe 8e52 a8bd
000003b0: 6cbe 913d 2461 83bd c8e5 f33d 9197 3b3e
000003c0: 605c 2d3e 63f9 92bc e01b c73b 4cf8 9a3d
000003d0: 8017 933d 3654 86bd 90d9 9bbd 31aa 85be
000003e0: b5da a63d 914a 0d3e 1ccb 793d 70bb 293c
000003f0: 1c8c 823e c1e2 943d 84bf cbbc a205 933d
0.028717995 -0.017949868 -0.023971872 -0.26149818 0.10434978 -0.3941018 0.056573622 -0.29465216
0.044689894 -0.16115999 0.091456436 -0.054391995 0.05164555 0.026104197 0.069429606 0.0072053056
0.049611576 -0.012770139 0.015363118 0.06808183 -0.011306017 -0.024777643 -0.26270783 0.041607447
0.14241204 -0.027193552 0.124348894 -0.3639188 0.07782579 0.11187531 -0.0034815099 0.043126296
-0.2930629 0.035551876 -0.035069153 0.017917229 -0.054670803 0.003937541 0.04326177 0.011874699
0.026878744 0.08062165 0.03329811 -0.0461528 -0.046985436 -0.14085153 -0.059776973 0.048694253
-0.08517266 0.16655828 -0.21493638 0.08754231 0.1344005 0.01578928 -0.05111182 0.099675044
-0.3380735 -0.26087603 -0.055127095 0.08106258 -0.0676486 -0.04103064 0.023013886 0.008159787
0.007837263 0.08204239 -0.5272943 -0.371363 -0.20647517 -0.02130089 -0.022498166 0.22926922
0.0052049886 -0.31978235 0.061291866 -0.007472371 0.07554399 -0.11993446 0.07371076 -0.27016354
0.057483904 -0.01467372 -0.52434003 0.010952988 0.009496729 -0.025605831 0.11828608 0.018134205
-0.13568668 -0.0005488843 0.12793052 -0.41875654 -0.053317793 -0.07315179 -0.64449316 -0.29904047
0.018410169 -0.007084966 -0.2496353 -0.0027000261 0.02994943 0.10069157 0.048507124 0.13247254
0.018828748 0.08279742 0.021672914 0.09687827 0.065569006 0.03678357 0.01605927 0.05845274
0.021064974 0.024498077 -0.0069822925 -0.066283375 0.10324222 -0.25324923 0.021494899 -0.13198774
0.049288962 0.05122516 -0.5305511 0.029338457 -0.010815852 -0.026219867 0.055220798 0.020826364
-0.04009318 -0.022388801 0.118536465 -0.06307111 0.044907685 -0.017025435 -0.05168492 0.30436084
0.1761909 -0.06484437 -0.27146086 -0.034462478 -0.046970002 0.010011853 0.055960037 0.052140705
0.10160389 -0.03479685 -0.015334388 -0.024098748 0.18433592 0.053727936 0.0015464053 0.10908558
-0.06502627 0.022199111 -0.053680252 -0.059177577 -0.0045830384 -0.010410678 0.01647649 -0.09771742
0.008261545 -0.20370734 -0.41985792 0.04897324 -0.52018684 0.074859045 -0.07204801 0.17991087
-0.01476415 0.08516444 0.25469053 -0.05610152 -0.1790817 0.030280374 0.030860275 0.0565317
-0.18296224 0.10547997 0.009768036 -0.009624446 0.0052777003 -0.0013796166 -0.0942384 0.02390521
-0.0010467165 0.07064255 0.061336536 0.08728882 -0.3242381 0.0049635572 0.119549744 0.09375675
-0.019274693 -0.043776773 0.08276748 -0.017805973 0.18786873 0.19679494 -0.026880056 -0.0058948323
-0.025578743 -0.026839295 -0.11579941 0.05388651 0.019769536 0.013227142 -0.31385395 -0.39705685
0.04536014 0.026938178 -0.042923395 -0.0528261 0.30640933 -0.019288361 0.004976525 -0.1234913
-0.014113111 0.077771746 -0.055959415 0.18515497 -0.029943842 -0.034314677 -0.105786435 0.3115587
0.05865347 0.117325686 -0.020434648 0.15289363 -0.073542945 0.0032723534 0.02165776 0.004535958
0.053059053 0.01610433 -0.16700776 -0.08218871 0.07116398 -0.064150125 0.11909062 0.18319537
0.1692977 -0.017941182 0.006076321 0.0756689 0.07182217 -0.06559031 -0.07609856 -0.26106408
0.08147184 0.13797976 0.060984716 0.01035963 0.2549752 0.072698124 -0.024871595 0.07178809

bias f4 [128]
00000000: 5e67 5a3e 6c93 813e 160c bf3e 39d5 8a3e
00000010: ebfa 3d3e 0e60 a33e 23a6 ed3e 7e31 a83e
00000020: df7f 293e 4ef9 b03d 7e78 c13e abf5 af3e
00000030: 6bfc c23e 71e2 8f3e 7128 b73e 9ccd 8e3e
00000040: 9caf 703e 328f 923e d7ed 2c3e 1910 ac3e
00000050: 0514 883e 6632 5d3e 11ba 993e f760 853e
00000060: f082 203d 1026 723e 8f85 6e3e b819 773e
00000070: c42d ad3e 980c 823e 771b 623e 7f18 ae3e
00000080: 6336 963e ca75 4d3e 8e5d a63e 04ce c93d
00000090: 15fa 4c3e 42be cd3d 4ca3 f33d 2d1b a43e
000000a0: 3f40 bb3d e34a 853e d40a e23c eb44 993e
000000b0: ceca 423e bf90 aa3e 837c 213e d775 213e
000000c0: 4c3b 9f3e 7351 973d 8ef1 073e 6b87 e03d
000000d0: dc4e 653e ae24 043f d06f a43e 0350 923e
000000e0: 8427 363e 9cee 153e b4f3 df3d f0dc 783e
000000f0: 167e 523d 01aa d63d f87e 833e 9e40 5b3e
00000100: 37e8 663e dd02 283e 5cd9 7a3e 2c29 c53e
00000110: 3aee 0c3e e282 3e3d 9574 013e e0b9 4a3e
00000120: 8dfe 713e de1c 913e 4b77 013e 6ee7 4a3e
00000130: 1384 b73e 7fc8 c93e 788d 5e3e b9a5 573e
00000140: 1c3c 733e d3a1 193e 4fdb ce3e 1378 573e
00000150: baaf ec3d 9d1e 6a3e ff07 9e3e 978b 8c3e
00000160: 98ce 663e e0ef 983e 8a92 363e 489b c73d
00000170: 570b b93e 4b2f 313e e3b9 b43e 7d8d c13e
00000180: 6f11 e53d 78ae 373e 2a8b cb3e cbc7 913e
00000190: 7bff 993e 4ecc 1f3e 6679 303e 7e96 8c3e
000001a0: f829 8a3e 4e99 9d3e 13ba 533e be23 173e
000001b0: e553 373e d91c b43c d445 b43e 5c7f 803e
000001c0: d933 4e3e 653c 083e 31a4 703e 4341 c83d
000001d0: 45b5 1d3e 9d05 d03e 7c5c bd3e fc25 203e
000001e0: 8035 b43e c2a7 793e 2ab7 993e 9412 7e3e
000001f0: e516 b23e 4fbe b93e fa72 b13e 5ba3 9e3d
0.21328494 0.25307786 0.37313908 0.271158 0.18552749 0.3190922 0.46415815 0.3285026
0.16552685 0.08641301 0.3778724 0.34367117 0.38083205 0.2810245 0.35773042 0.27891243
0.2350449 0.28624874 0.16887604 0.33606032 0.26577774 0.21601257 0.3002477 0.2605054
0.03918737 0.23647332 0.23293136 0.24130905 0.3382398 0.25400233 0.2208079 0.34003064
0.2933837 0.20064464 0.32493252 0.098537475 0.20017274 0.100460544 0.11896381 0.32051983
0.09143113 0.26033697 0.027593054 0.29935393 0.19022676 0.33313558 0.15770154 0.15767609
0.31099927 0.07388582 0.1327574 0.10963329 0.22393364 0.5161847 0.32116556 0.2857667
0.17788512 0.14641804 0.109351546 0.24303031 0.051389776 0.104816444 0.25682807 0.21411368
0.2254952 0.16407342 0.24496979 0.38507974 0.13762751 0.04651154 0.12642129 0.19797468
0.2363226 0.28342336 0.12643163 0.19814846 0.35842952 0.3941078 0.21733654 0.21059312
0.23753399 0.15003137 0.40401694 0.21041898 0.11556955 0.2286324 0.30865476 0.2745025
0.22539747 0.2987051 0.17829338 0.097464144 0.36141464 0.17303197 0.3529807 0.3780326
0.11184966 0.17937648 0.3975461 0.28472742 0.3007773 0.1560528 0.1723381 0.27458566
0.26985145 0.30781025 0.2067645 0.14759728 0.17903097 0.021986412 0.35209525 0.25097167
0.20136966 0.13304289 0.23500134 0.09778073 0.1540118 0.40629283 0.36984622 0.1563949
0.35197067 0.24380401 0.30022556 0.24811774 0.34783092 0.36278006 0.34658033 0.07746001

weight f4 [9, 128]
00000000: aa11 8a3d d14b 9fbc 5e1b c1be eb81 79bd
00000010: 10a2 f2be 453a a3be 0ea6 04bc d4bc 97be
00000020: 6164 abbe 46e4 08bf 38c0 363c 621f 823d
00000030: 58dd 1cbe 5ce8 fd3d 3af2 323e 7b96 0bbd
00000040: c48a 53bd e93d 053d f611 aa3d 3dee ea3d
00000050: b548 35be 3c76 d9be a9ae 343d 7b61 20bf
00000060: 79f6 87be 35f4 95be 873b 93be 4861 c2be
00000070: 70bf 1abe 6490 3abe 93f4 b63d 6201 ec3d
00000080: bed1 c73d c0ce ca3d c591 b0be c4d0 583d
00000090: fe6a 0a3e 49a4 81be a885 c1be fed7 4cbe
000000a0: 3d72 adbe 4abd e2bd ea41 8cbe ded6 293e
000000b0: a0cf f6bd 592a 64be 84bc b93d 8b00 efbd
000000c0: e8ac 85bd dc0c 7a3d ca98 943d 221a ab3d
000000d0: 2cfb b4be 4199 213d 31b6 b5be c170 ddbe
000000e0: ee2e 77be ebab e0be 78f1 5f3d ab9a 933d
000000f0: a164 8b3d 626a c83d 419a ddbe ef10 1cbf
00000100: 46b0 2abd a629 063e b849 3ebe 4504 213e
00000110: 4d18 bd3d d039 82be 3657 d5ba 6239 dd3d
00000120: e4ac 813d facd b43c 2eb7 023e f751 983d
00000130: c51f e93d 3f91 0a3e 198a 99be dc74 b8be
00000140: f3da 493d de22 983d 65f2 223e 802d f23d
00000150: cdd3 d73d dde3 f93b dfcf 103e c96a f23d
00000160: e07c e63d 0b0c 0c3e f9c8 bfbe 162f 92ba
00000170: 7e96 98be 4707 b03d 8028 0c3d bb3d f23c
00000180: 178a bb3d a3cc 85be 8f9e 063e 02da 7fbe
00000190: 8288 a33d 4d87 c9be 9286 3c3d 9606 033e
000001a0: 0fbe 4ebe 6d17 9a3d 195c f1bd 29a8 943d
000001b0: 43c4 973d 9463 3a3d 7fad 1a3e d1b1 a8be
000001c0: e753 fdbe 24a8 ad3d 20b9 803d cce5 3c3d
000001d0: 9d1a 9abe 321a f33d 3562 fd3d 0c96 ff3d
000001e0: b833 ef3d 84b6 fd3d e215 a4be 298a eb3d
000001f0: f3c1 293d 913e ed3d 8915 5fbe 9482 6e3d
00000200: 69ba 1a3e 3e65 1bbf f63b a7be 9cf8 b63d
00000210: 5815 c03d c5b0 883d 9f84 0fbf 8269 eebe
00000220: 6beb 063e 331d cf3d cf74 98be 0ea2 ebbe
00000230: ae0d 46be 109a f2be 507a 883d 9fa1 e33d
00000240: ace2 a33d 1642 173e 237d 33be ffe1 ea3d
00000250: a420 083d eff5 0ebd 1ed5 2cbe 644b b43d
00000260: 7f24 c73d 8af4 b33d 0283 dbbe aa01 ac3d
00000270: 7e37 1c3e e59c 3b3e 6597 0c3e 941e fa3d
00000280: 8791 85be 9c08 813c aa29 0a3e 2161 ef3d
00000290: 1347 de3d 9f6c 7a3d ed9e 6a3d 1e6d 713d
000002a0: 0aba b43d 13bc c6be b49b 213d b6ea 4abd
000002b0: 2c70 96be 0bf1 d0be 575c 6fbd 6ca5 f73d
000002c0: 99ca 65be 2395 b63d 3177 963d 31cc cd3d
000002d0: e440 883d 52c1 adbe c623 593d 8a39 36be
000002e0: 665b 5a3d fa73 3ebe dcc3 64be 105d 0dbf
000002f0: f258 a9be b627 c83d 261e d4be 9499 00bf
00000300: 89a5 6fbe 3de1 063e 19a9 843d b2e2 283e
00000310: 4014 ff3d 00ca 643d 5775 cb3d 7ab5 cbbe
00000320: 286c 093e 738c ba3d b3b5 4fbe dd31 8ebe
00000330: 0b20 ce3d f31e 7b3d 150e c53d f2bf 8a3d
00000340: a104 0b3e 092e 0f3e 3a5e 543d 646a aebe
00000350: b7c3 c13d 764b 2dbd 943f d0be 0b72 483d
00000360: 7e75 9bbe a62d 0fbf 819d 663d 3967 4cbe
00000370: 3bd1 953d a09c fd3d 771c b33d 343b d03d
00000380: 8d05 31be cb8a 293d 2f6f 05bf 8cfd 89be
00000390: ea4f 2bbf 00d0 c43d c40a b83d 5569 b93d
000003a0: aef9 063e 7d5e 48be 583d 7fbe ebc2 173d
000003b0: 683d f13d 42a4 1ebe f0e9 df3d c8f7 ecbe
000003c0: d007 af3d cf26 993d d640 ddbe 9cbb 163d
000003d0: c607 a53d a9d4 65be 3e0a 6dbe fad4 aebe
000003e0: 1768 efbe f439 84bd 083a 693d 3161 603d
000003f0: 5015 c5be a604 10be 392b 093e e977 74be
0.067416504 -0.019445332 -0.37716192 -0.060914915 -0.4738927 -0.31880394 -0.008096231 -0.29636252
-0.3347502 -0.5347332 0.011154227 0.06353642 -0.15318811 0.12397835 0.17475215 -0.034079056
-0.05164601 0.032529745 0.08304207 0.114712216 -0.17703517 -0.42473018 0.04411188 -0.62648743
-0.2655523 -0.29287878 -0.28756353 -0.37964845 -0.1511209 -0.18219143 0.089333676 0.11523701
0.09756802 0.09902716 -0.34486213 0.05293347 0.13517377 -0.25320652 -0.37797284 -0.2000427
-0.3387622 -0.1107126 -0.27394038 0.16585872 -0.1205132 -0.2228178 0.090691596 -0.116700254
-0.0652712 0.06104742 0.07255705 0.08354594 -0.3534788 0.039452795 -0.35490564 -0.43250087
-0.24138996 -0.43881163 0.054673642 0.07207235 0.06806303 0.09785916 -0.4328175 -0.6096334
-0.041672014 0.13101825 -0.18582809 0.15724285 0.09233151 -0.25434732 -0.0016276601 0.108019605
0.063318044 0.022070874 0.1276519 0.074375086 0.11383013 0.1353197 -0.29988173 -0.36026657
0.049281072 0.074285254 0.15912779 0.11825085 0.10538445 0.0076260404 0.14141797 0.11836774
0.11254287 0.13676469 -0.37458017 -0.0011152949 -0.29802316 0.08595138 0.03421831 0.029570451
0.09157198 -0.26132688 0.13146423 -0.24985507 0.07985021 -0.3936104 0.046026774 0.12795481
-0.20189689 0.07523999 -0.11785144 0.072586365 0.07410481 0.04550512 0.15105246 -0.32948163
-0.49478075 0.08479336 0.0628531 0.04611759 -0.3009843 0.11870231 0.12372247 0.12479791
0.116797864 0.12388328 -0.32047945 0.11500961 0.04144473 0.11584199 -0.21785559 0.058229998
0.15110172 -0.6070136 -0.32662934 0.08934137 0.09379071 0.06674341 -0.5606174 -0.4656487
0.13175742 0.10112991 -0.29776618 -0.46022075 -0.19341156 -0.47383165 0.06663954 0.11114811
0.080022186 0.14771304 -0.17528205 0.114688866 0.033234254 -0.03490251 -0.16878173 0.08803442
0.09723758 0.087868765 -0.4287339 0.08398755 0.15255544 0.1832157 0.13729627 0.122128636
-0.2608759 0.015751176 0.13492456 0.11688448 0.108534 0.061138745 0.05728047 0.058941953
0.08824547 -0.38815364 0.03945513 -0.049540244 -0.29382455 -0.408089 -0.05843767 0.120920986
-0.22440566 0.08915164 0.07346953 0.10048712 0.06653002 -0.33936554 0.05301263 -0.17795387
0.05330982 -0.18598929 -0.2234034 -0.5522013 -0.33075672 0.09773199 -0.4142925 -0.5023434
-0.2340299 0.13171859 0.06477565 0.16492727 0.12455034 0.055856705 0.0993449 -0.39786893
0.13420165 0.0910882 -0.20284157 -0.27772418 0.100647055 0.061308812 0.096218266 0.06774892
0.13575985 0.13982405 0.051847674 -0.34065545 0.09461158 -0.042308293 -0.40673506 0.048936885
-0.30363077 -0.5592903 0.05630255 -0.19961251 0.07315298 0.123833895 0.087456636 0.10167542
-0.17287274 0.04139213 -0.5212278 -0.26951253 -0.66918814 0.09609985 0.089864284 0.090532936
0.13181183 -0.19567294 -0.24925745 0.037051123 0.117792904 -0.15492347 0.10933292 -0.46282792
0.08546412 0.07478105 -0.43213528 0.036800012 0.08058123 -0.22444405 -0.23148438 -0.34146863
-0.46759102 -0.06456366 0.05694011 0.05478019 -0.38492823 -0.14064273 0.13395394 -0.23873867

bias f4 [9]
00000000: 1212 59bc beee 5f3c f20c 8dbe c28e 00be
00000010: d2d1 803e cd85 fbbd 565a 1e3e 787e 883d
00000020: d85d e6bd
-0.013248937 0.01366776 -0.2754894 -0.12554458 0.2516008 -0.1228138 0.15464148 0.06664747
-0.11248368
