predictor_model_without_domain.pth (torch, 666862 bytes, 6 tensors)

weight f4 [256, 512]
00000000: 34e5 703c 16f8 733d a4a5 3bbd b6f7 0dbd
00000010: be8e 19bd d24c f23c 75f0 26bd f326 583c
00000020: b30e 723d 660b dd3c f263 a7bc 2316 253d
00000030: 3dd7 20bc f7c6 7aba fba5 e2bb cd5b b2bb
00000040: 2770 003d 5f89 a5bb 4f0a 53bb aecb 0f3d
00000050: 4946 273d 55f4 06bb f9a8 17bd 8751 39bc
00000060: 1580 953c 8adb 53bd 50ef f63b 6e92 2ebc
00000070: 96e8 17bd e6c1 a9bc c603 f93c 2a18 81bd
00000080: f5f5 e5bc 34b0 d83c afd7 90bc 2be8 c5bc
00000090: a000 49bc daed afbd 3efc b5bb 8033 2fbd
000000a0: d6c6 7b3d c1c1 d73c e3c4 27bb 57cc c63b
000000b0: 99ff 123d c1d8 34bd 3801 d8bb e3eb 463d
000000c0: 16bc e23c 9314 ffbb 724c a9bd 1870 a23c
000000d0: ac7e 9cbc 24bc afbc 896e a63c b8e7 4dbd
000000e0: 6625 c2bb b0a5 c23c fa93 f9bc 6121 4fbd
000000f0: e134 643c 6826 6d3d 3ad1 bfbc 8831 6ebd
00000100: 2878 043d fc1e 253d 910c ccbc d434 9e3b
00000110: 0df0 3dbd feea b13d 6cf6 693b 3d91 9bbc
00000120: ab2d 4bbd d632 80bd a737 c23c 3a5a c13c
00000130: 1dfc 133d 432a 11bc dc9e 27bd 6973 cb3c
00000140: e264 58bd 454c 2fbd 69f0 1e3d a863 fa3c
00000150: b5d5 64bd 06aa 24bc 5b8b 6abd 4359 163d
00000160: b12c 3fbc 1ce3 a8bb edb1 d33c 69ab 42bd
00000170: 7f6b 3b3d 5560 1ebd b9a1 0cbd 64ad bd3d
00000180: 8eea a33d cd18 073d 78b3 373d 87fd 91bd
00000190: 962b f43c bebb b03d f9fe 9f3d 6284 75bc
000001a0: 1ec9 54bc d017 243d 03d5 18bc ce8a 6abd
000001b0: 6fa6 18bd c2cd 963d eaee 0cbc 3790 c9bc
000001c0: 499d 473d 3f3f d8bc 05af a9bc f2ff 693b
000001d0: edbb 4cbc 0e7e 39bd be97 d3bc 35ed 51bd
000001e0: f49d 373d d41d 8f3d 1960 193c bbe3 ef3a
000001f0: e345 1bbd 9ec2 293c e0dd fa3c 4e34 483d
00000200: 0082 803c 4a67 4bbc bb26 0bbd cfbb 5e3c
00000210: 5a7f 7a3c 3274 2c3c 665c 97bd 840b e93c
00000220: 5fc8 9bbc 95fc 523c 28ce 543d 7202 16bd
00000230: 36d7 4a3d 12a8 bf3c 563c cfbc 56fd c53c
00000240: f2d6 06bd 018a a3bd 8221 b5bc 51e9 4bba
00000250: 7ae3 f13b 932b 05bd bf27 a43d 1a15 e9bc
00000260: 5a8f 86bc c094 57bd 1be3 603d 92c4 093d
00000270: 5468 76bd af73 9b3c f85a d43c 3384 15bc
00000280: d8cf 4ebd 12a3 fa3c e23b 21bd 04bf 9bbc
00000290: b419 b2bc fc1d f03c 55c2 19bc 857f 663c
000002a0: b7ba d13c 5e0f cb3c eabd 9ebd 2f5f 613b
000002b0: 0e33 e1bb 562e 21bc 273f 283d d124 243c
000002c0: 9ecb be3c c5e0 62bc f3b3 8f3b 1865 543d
000002d0: f84e 263c fa3c 423c 9da9 ac3c f3dd dabc
000002e0: 84dd 103d 9f9c 6ebb 6959 c1bc 6b47 a6bc
000002f0: 1d65 35bd c589 cb3a 5d96 5bbd ef06 debc
00000300: f3dc 9a3c 8aa5 373b b159 c3bb 9de9 6ebc
00000310: c966 86bd affa 5ebd 8ba5 883c 7819 ce3c
00000320: 68b1 87bd 698a 833d 9062 f4b9 11ac 4abc
00000330: abc3 3bbc 1836 45bd ba56 363d 2bc3 cb3c
00000340: b117 54bd 490a a63c 3524 f23c 67bd 3fbd
00000350: b067 493c 3d70 733c d776 063d d50f 083d
00000360: 8afd 5a3c 73b4 f4bc cb54 33bd 68a1 3dbc
00000370: bee4 17bd 62b6 b03b a45c 45bd f027 02bc
00000380: 2bcb 14bd 9637 62bc 5726 f5b9 7fe7 5fbd
00000390: ab65 47bd 94c8 10bd 555f b03c c26e 303d
000003a0: c132 50bd 0a76 743c 35c0 b1bc 175d 29bd
000003b0: dc19 98bc f6eb 84bd 8a15 dbbc 1c8a 2bbd
000003c0: 2f73 483c 0ec0 1dbc 736e bdbc 4a6d 2fbd
000003d0: 77de 8d3b 1848 a1bc 1ff8 043d 67ca ccbc
000003e0: 1bb5 19bd edab 0f3d 81dc 123d 9730 92bc
000003f0: 46ea bd3b 2e47 cabc 8a28 103d f151 363c
0.014703084 0.059562765 -0.045812264 -0.034660064 -0.037489645 0.029577646 -0.04075666 0.01319288
0.05909605 0.026982974 -0.0204334 0.040304314 -0.009816942 -0.0009566391 -0.006916759 -0.0054430724
0.031356957 -0.0050517763 -0.003220219 0.035106353 0.040838514 -0.002059241 -0.03702638 -0.011310942
0.01824955 -0.05172304 0.0075358525 -0.010655029 -0.037087046 -0.02072234 0.030397307 -0.06303437
-0.028071383 0.026451208 -0.017680971 -0.024158558 -0.012268215 -0.085902885 -0.0055537513 -0.042773724
0.06146892 0.026337506 -0.0025599531 0.0060668397 0.03588829 -0.044152025 -0.006591942 0.048564803
0.027677577 -0.007784435 -0.08266534 0.019828841 -0.01910337 -0.021452017 0.02031638 -0.050269812
-0.0059248684 0.023760647 -0.030466069 -0.050568942 0.013928623 0.057897955 -0.023415197 -0.058152705
0.032341152 0.040312752 -0.024908336 0.004828075 -0.04637151 0.08687399 0.0035699857 -0.018990153
-0.0496041 -0.06259696 0.023708178 0.023602594 0.036129106 -0.008860174 -0.040922984 0.024835305
-0.052830584 -0.042797346 0.03880349 0.030565098 -0.05586787 -0.010050302 -0.057261806 0.03670622
-0.01166837 -0.0051540267 0.025841678 -0.04752675 0.045756813 -0.038666088 -0.03433392 0.09261587
0.08003722 0.032982636 0.04484889 -0.07128435 0.02980594 0.08629559 0.07812304 -0.014985176
-0.012987403 0.040061772 -0.00932813 -0.05726128 -0.0372681 0.07363464 -0.008601883 -0.0246049
0.048733983 -0.026397346 -0.020713339 0.0035705534 -0.012495977 -0.04528623 -0.025829192 -0.05125161
0.04482837 0.06988111 0.00936129 0.0018302122 -0.037908446 0.010361342 0.030623376 0.048878007
0.015686989 -0.012414763 -0.033972483 0.013594582 0.015289152 0.01052575 -0.073906705 0.028447874
-0.019016443 0.012877603 0.05195442 -0.036623426 0.049521647 0.023395572 -0.025297325 0.024168652
-0.03291983 -0.079853065 -0.022110704 -0.00077786023 0.0073818536 -0.03251226 0.080153935 -0.028452445
-0.016425777 -0.052632093 0.054904085 0.03363473 -0.06015809 0.01897606 0.025922284 -0.009125757
-0.050491184 0.030595336 -0.03936375 -0.019011982 -0.021740772 0.029311173 -0.009384711 0.014068489
0.025601728 0.024787601 -0.07751067 0.003438901 -0.0068725413 -0.0098377075 0.04107585 0.010018543
0.023290452 -0.013847535 0.0043854653 0.051854223 0.010150664 0.011855358 0.021076972 -0.026717162
0.035367504 -0.0036409271 -0.023602204 -0.020297727 -0.044285882 0.001552873 -0.053610194 -0.027102916
0.018904185 0.0028022253 -0.00596162 -0.014582065 -0.065625735 -0.05443829 0.0166805 0.025158629
-0.066256344 0.06422884 -0.0004661274 -0.012370125 -0.011460225 -0.04814729 0.044516303 0.024873337
-0.051780406 0.020268576 0.02955828 -0.046811488 0.012292787 0.014858303 0.03282818 0.033218224
0.0133661125 -0.029871201 -0.043782037 -0.011574127 -0.03708338 0.0053928355 -0.048184052 -0.007944092
-0.03632657 -0.013807198 -0.00046758607 -0.05466413 -0.048680943 -0.035347536 0.021529833 0.043074377
-0.050829653 0.014920721 -0.021698097 -0.041348543 -0.018567018 -0.064903185 -0.026743669 -0.04187976
0.012234493 -0.009628309 -0.023123955 -0.042828836 0.0043294984 -0.019687697 0.03246319 -0.024998857
-0.03752623 0.03507607 0.03585482 -0.017845435 0.00579575 -0.024692144 0.03519491 0.011127935

bias f4 [256]
00000000: b9f6 eabc 3ccb 47bd c00a a3bc fc1d a5bb
00000010: ba17 4d3b 37d6 153d dc3c ae3c 5960 2cbc
00000020: f07b 213d da33 ddbc 227f 07bd 19d6 413b
00000030: 2691 e7bc 49e8 5d3c 3d05 00bd 8f9a 2f3d
00000040: cdf2 08bd 25d7 3ebd 5490 0bbd 8598 393d
00000050: 3786 913c 5079 57bd 9b1a 9e3c ebb1 3ebd
00000060: d9f4 033d 395c eb3c 3388 f53c 537e 6dbc
00000070: 0542 7bbd b714 c83c d54b 9ebc 86a7 abbc
00000080: 56c6 1b3d 8338 8bbc 6888 133d 3bda 0e3c
00000090: d1c9 c13c 2b34 ff3c 4f99 113c 32f8 79bc
000000a0: 81dc 63bc 8089 10bc 84d8 1dbd a179 a0bc
000000b0: 2b7c 14bb cc98 6abc 4853 bd3c 0acb c23c
000000c0: cbbe cb3c fad7 db3c 3f16 5e3c 22f8 29bc
000000d0: d6f4 16bd a513 e23c 3324 f83c 7042 76bc
000000e0: 0dd3 133d 478e ae3c 5611 00bc d457 ae3c
000000f0: a2e6 3cbb 723d 11bb df14 8d3c 19a6 ecbc
00000100: 1c76 dfbb 2638 98bc 4edd 103c aaf9 7f3c
00000110: 120b 163d 17e0 cdbc 30fb 35bd 1e46 02bd
00000120: cac3 2cbd 71e8 383c aaa0 9e3c 1cde 92bc
00000130: a597 7dbc 8e53 c4bb b002 023d 929c 83bc
00000140: 9fb9 c6bc 078d 51bc 2b91 0a3d be42 093a
00000150: a910 7d3c 49a9 c8bc dfd9 173c f476 fd3c
00000160: 6699 97ba 1f8a cabc 78cd 2fbc 6835 cf3c
00000170: 61db da3c af22 153c 670c 343c 65d1 38bb
00000180: 379f eabc 136a bc3c 6a6c e23c 78a0 b7bc
00000190: 7307 c9bc b262 8fbc c27c 41bd b3c0 813b
000001a0: 4f3d 45bc 3f45 2bbd ac00 12bd f0a4 99bc
000001b0: 25b9 c43c b3e6 973c 0666 44bd 6e2f 60bc
000001c0: 65b5 d7bc f3f0 95bc 1cc8 87bc 8335 bd3b
000001d0: e53d fbbc 531c 383d 9d73 97bb 9385 eb3c
000001e0: 8609 d5bc b628 f6bc fcae da3c b653 5d3c
000001f0: 371b 92b9 5ba7 073d cc1b 2a3d f821 8e3c
00000200: a655 35bd e3fc 323d bd7e cc3b 695f 39bd
00000210: 7816 0e3d adeb e7bc c4b0 6bbc 6a6a 8f3c
00000220: c045 153d 8673 dc3c 7d97 013c f04e ddbc
00000230: 3e55 bf3c 81b7 143c 62c3 39bc f345 fbbc
00000240: 50f8 2f3c c9f8 26bc 3be3 3dbc ab08 8bbc
00000250: 9a45 2abd 9680 31bd 8bfe 3cbc b264 3cbd
00000260: 896e d03c d4c5 8f3c 1a98 30bd e734 1d3d
00000270: fc21 4bbd 4ef8 12bd e493 ca3c 40da 8e3c
00000280: d966 c03b ffe2 0c3d 4fa0 2f3d 3561 3c3c
00000290: 78a9 253d 62a2 473a 6bc0 a43c 0323 1a3d
000002a0: 0b94 1cbd c410 ed3c 0a11 66bb 948b a4bc
000002b0: 5960 6339 f204 4fbc 3984 96bc c66d fcbc
000002c0: 5a79 ae3c 7d84 9d3c 3417 bfbc f4bf d43c
000002d0: 5524 d13c a79e 6abc b860 ee3a da0f af3b
000002e0: f7b6 903c aff9 54bc 342c 30bd 200c 0cbc
000002f0: 4692 2a3d 3c07 a83c 6d96 363d 191a bc3c
00000300: 5e52 1b3d 1997 0f3c 354e f1bc 0048 8bbc
00000310: 06d6 bdbc 9425 f13c c55c cebc f40e 683c
00000320: 0d4d 0f3d b129 363c 64bf a13c 8b9b 76bb
00000330: 40ba cf3c 1e0a 12bd 84d7 f4bc 0789 843c
00000340: 411e b2bc f10a 663c fa1b f03b bf73 783c
00000350: 12fd 043d b733 25bd 8079 113d 76af 5dbc
00000360: ef53 0bbb 4b59 09bd 0c03 df3c f135 2dbd
00000370: 8aff c0bc a15a a0bc d2be 8fbb 0eb6 873b
00000380: 15dc 28bc 4117 dfba 31b7 9b3b f301 6fbb
00000390: d1fc 163c 632b 083d 8ee4 833c 6c69 2dbd
000003a0: 6a7b 8bbb 0a28 5fbc 863e 33bd e03a eebc
000003b0: 646e 5cbd 61b6 013d 2cbe 8cbc 1f15 08ba
000003c0: 4e09 1c3d 03eb f13c f3a4 ddbb bb82 08bd
000003d0: 1f2a 03bd 77db c9bc 306c 0f3d e986 d7bb
000003e0: 453a 0ebd 5c5e 093d b676 02b8 b0cf cc3b
000003f0: cc7f c0bb cacd 9a3c e1c3 96bb 4702 573b
-0.0286821 -0.048777804 -0.019902587 -0.005038975 0.003129466 0.036581244 0.021269254 -0.010521018
0.039424837 -0.027002264 -0.033080228 0.0029577075 -0.028267454 0.013544151 -0.031254996 0.042872008
-0.033434678 -0.046591897 -0.03407319 0.04531147 0.017764194 -0.052605927 0.019299796 -0.046556395
0.032215927 0.028730499 0.029972171 -0.01449545 -0.061342258 0.02442394 -0.019323269 -0.020953905
0.038030945 -0.01699472 0.03601876 0.008719022 0.023655804 0.031152805 0.008886649 -0.015256928
-0.013907553 -0.008821845 -0.038536564 -0.019589247 -0.0022657018 -0.014318656 0.023111 0.023778457
0.02487125 0.026836384 0.013555109 -0.010374101 -0.036854587 0.027597258 0.030290699 -0.015030488
0.036089946 0.021308077 -0.007816633 0.021282114 -0.0028823991 -0.0022161868 0.017221866 -0.028887795
-0.0068194997 -0.018581461 0.008841826 0.015623489 0.03663165 -0.025131268 -0.044429004 -0.03180515
-0.042178907 0.011285887 0.01936372 -0.017928176 -0.015478049 -0.005991406 0.031740844 -0.01606587
-0.024258433 -0.012789971 0.03382985 0.00052360806 0.015445867 -0.024494784 0.009268253 0.03094051
-0.0011566102 -0.024724064 -0.01073014 0.02529402 0.026715936 0.0091025075 0.010989285 -0.002820098
-0.028640373 0.022999799 0.027639586 -0.022415385 -0.024539685 -0.017503116 -0.04723812 0.003959739
-0.012038543 -0.041814085 -0.035645172 -0.018755406 0.024014065 0.018542623 -0.04794886 -0.013683183
-0.026331613 -0.01830337 -0.016574912 0.0057742014 -0.030669162 0.044948887 -0.0046219365 0.028750217
-0.026005518 -0.03004871 0.026694767 0.013508728 -0.00027867567 0.033118587 0.041530415 0.017350182
-0.044271134 0.043698203 0.0062406943 -0.045257006 0.034689397 -0.028310621 -0.014385406 0.017506797
0.036443472 0.026910555 0.007909653 -0.02701518 0.023356076 0.009076954 -0.011338087 -0.030673003
0.010740355 -0.010191151 -0.0115898205 -0.016971907 -0.041570283 -0.04333552 -0.011535297 -0.045994468
0.025443332 0.017550386 -0.043113805 0.03838053 -0.049592957 -0.035881333 0.024728723 0.017438054
0.0058716354 0.034396168 0.04287749 0.011497785 0.04044482 0.00076154445 0.020111283 0.037631046
-0.038227122 0.028938659 -0.003510537 -0.020086087 0.000216843 -0.012635456 -0.018373596 -0.030814063
0.0212981 0.019228214 -0.023326494 0.025970437 0.02553002 -0.014320052 0.0018186783 0.005342466
0.01766537 -0.012998982 -0.043010905 -0.008547813 0.041643403 0.020511262 0.04457705 0.022961663
0.03792035 0.008764052 -0.029456237 -0.017002106 -0.023173343 0.029436864 -0.02519072 0.014163721
0.03498559 0.011118338 0.019744582 -0.0037629332 0.025357366 -0.03565418 -0.029887922 0.016178621
-0.021742942 0.014040695 0.007327554 0.015164315 0.03246791 -0.040332522 0.035516262 -0.013530603
-0.0021259745 -0.033532422 0.027223133 -0.04228777 -0.02355935 -0.019574465 -0.004386761 0.0041415757
-0.010306378 -0.001702048 0.0047520627 -0.0036469668 0.00921555 0.0332445 0.016100194 -0.042336866
-0.0042566555 -0.013620386 -0.0437608 -0.029080808 -0.053816214 0.03166807 -0.017180525 -0.00051911356
0.03809481 0.029531008 -0.0067640482 -0.0333278 -0.03202259 -0.024640782 0.035015285 -0.006577362
-0.03472354 0.033537254 -3.1104973e-05 0.006250344 -0.0058746096 0.018896956 -0.0046009873 0.0032807754

weight f4 [128, 256]
00000000: ff56 94bd b0a1 9cbc 1beb d1bc d402 60bd
00000010: 5824 4a3d 7c4c d2bc 69ff 083d dd3a abbd
00000020: 4882 54bd ee64 4ebd 4f3a 0fbc 0c0d 64bd
00000030: d43f 233d 2c40 0d3d 6a9f 833d 48b2 d13c
00000040: a0d6 463d d839 51bc d821 23bc 6917 0f3d
00000050: 7e86 7dbd 7cfa cabc 24f4 51bd 926c 2a3d
00000060: 9d0c f2bc aac8 3fbd c04f fb3c 009b 453c
00000070: b771 d13d 2ab6 883d 10e8 0fbd f83c 56bd
00000080: 7dd6 77bd f0c0 8f3b f88d efbc 3097 02bd
00000090: 7eee 5fbd 7dfe 9dbc 4da4 ae3a c06c 2c3d
000000a0: d030 dc3c f02b ee3c 5865 bebb 2c14 0b3d
000000b0: 9074 5bbd 805f 463a 0651 ca3c 84f4 883c
000000c0: 508c ed3c 8cb4 3cbd 9360 bc3c 4ad4 10bd
000000d0: 91a2 52bc c0a0 803c c01e 4b3d e28a 553c
000000e0: 8665 6b3d f109 79bd 40d9 d1bc 09e5 233d
000000f0: 9c8b 1bbd bf0f 28bd c02f cfbb 0c73 9abc
00000100: 6638 42bd d05b c03c 1827 1b3c 2482 a73c
00000110: 0aa4 6fbd 347f aebc 0007 f7b9 e188 bc3d
00000120: 30d2 a03b 836b 25bd 2e0d 7b3d a0d3 2ebd
00000130: c889 573d 12ab 1cbd b6d6 133d 96b8 36bd
00000140: 8dd9 16bd deb8 d03c b42f cc3c 80a6 00ba
00000150: 308e 6c3c de73 7bbd 3a0f 443d ce4d 833b
00000160: d9a6 2abb 00e3 0fba 7069 a13c 0b32 0e3d
00000170: c263 5abd 43fa 31bd e3b0 cf3c 8efd a0bd
00000180: 5e9c 48bd b62f 22bd 9c0e d5bc 5296 1d3d
00000190: f6f6 47bd 506b 963b 68af 463d f86f db3d
000001a0: 409f 18bd de75 733d f0e6 9d3b 000a 643d
000001b0: 9300 bf3c 527a 173d c007 96bc 246c 6f3d
000001c0: 7490 ac3c 146b b13b 6e8b 7c3d 6674 56bd
000001d0: 4213 433d c415 fabc 3072 e73c e4c9 3ebd
000001e0: bc5c 233d e8f5 02bc d046 aabb 3457 f03c
000001f0: 8837 a2bd d783 46bd 6049 b7ba 2005 5b3d
00000200: 1239 24bd ace6 853c 00aa 08bd d333 81bd
00000210: 0243 3c3d 7631 48bd f414 54bd 60c6 49bc
00000220: f024 743d 430c 64bd f4fa 53bc 9e54 7c3d
00000230: 2c1c 3d3d ac0d 52bd d211 5f3d 7e91 553d
00000240: f063 e8bc 2487 0ebd 9855 ec3c 48cc 87bc
00000250: 6edd 3cbd 70be babb c0b0 ca3a 6814 3a3d
00000260: bc8b 92bc e6a7 293d 6a22 5cbd f09e 3cbd
00000270: 3af6 ff3c b880 aabc 920a 22bd f056 a7bd
00000280: e31b 42bd 8f63 2fbd a080 79bd fafb b0bc
00000290: 871f 52bc 8c34 543d 4496 1bbd 394f eb3c
000002a0: 6acd 77bc 2cd4 073d 02bd 343d e538 19bd
000002b0: ff9c 92bd 8c0e f83c b0ce fc3c af4e f63c
000002c0: 4337 22bd d0e0 753c b0c8 5abc d8ef eabc
000002d0: 1443 a43b 40d4 b4ba 279e 893d 6c61 3e3d
000002e0: 109a 08bd d088 243c 5825 f43c be3a 5a3d
000002f0: 8d94 c6bd b02c e5bc a14a 8cbc 6062 b13c
00000300: c256 013d 464f 33bd 6a63 00bd 97c0 9bbc
00000310: 18f6 a63c 7433 efbc da20 02bd 7029 c1bb
00000320: 3021 dcbc 15de dbbc d833 43bd 3a3b fb3b
00000330: 9394 f2bc a8b6 583c 8556 21bd 9fef 12bd
00000340: 8ecb 393d 143f fb3c f01a 29bd bd69 c6bd
00000350: fef7 15bd a002 9ebc 5e72 f438 9421 f2bc
00000360: ed59 b33c eacf 3d3d 220b 5dbd 3b6a 9c3c
00000370: 1ee1 103d 8c8d 0cbd 5af4 3dba 2096 103d
00000380: a8c3 793d 3675 a1bd 9039 4cbd 4ce1 39bd
00000390: 1def 6fbd 73e9 1e3d b86c 32bc 60a2 943b
000003a0: 5867 6b3c 808c 003d 2ddc 0b3d 94e1 7dbd
000003b0: 8823 483d da8f 623d bcc1 22bd e027 5abb
000003c0: 810e 91bc 50c1 613c 237e 043c 053f 943c
000003d0: 35d2 913c a8cc b0bd 10be 28bc c1a4 96bd
000003e0: 6fe6 1f3d 9b8f 5bbd 947e 1f3d b2b0 50bd
000003f0: 5bf1 87bb 0860 493d 84bf cbbc 9a51 6f3d
-0.07243156 -0.019120067 -0.025624802 -0.054690197 0.049351066 -0.025671236 0.033446703 -0.08360837
-0.05188206 -0.050389223 -0.008741929 -0.055676505 0.039855793 0.034485027 0.0642689 0.025597706
0.048544526 -0.012770139 -0.009956799 0.034934435 -0.06189584 -0.024777643 -0.05125822 0.041607447
-0.02954703 -0.046822228 0.030677676 0.012060881 0.102267675 0.0667537 -0.03513342 -0.052304238
-0.060507286 0.0043870136 -0.0292425 -0.031882465 -0.054670803 -0.019286389 0.0013324112 0.0420959
0.026878744 0.029073685 -0.005810421 0.033954784 -0.05357796 0.0007567331 0.024696838 0.016718157
0.02899757 -0.04607062 0.022995269 -0.035358705 -0.012856142 0.015701652 0.049589872 0.0130336005
0.057469867 -0.060800496 -0.025616288 0.040013347 -0.03797494 -0.04103064 -0.006322831 -0.018853687
-0.047417067 0.02348128 0.00946977 0.020447798 -0.05850605 -0.02130089 -0.00047116727 0.09205795
0.004907869 -0.040385734 0.061291866 -0.04268229 0.052621633 -0.038249083 0.036093436 -0.04460963
-0.036828566 0.025478777 0.02492509 -0.0004907623 0.014438197 -0.061389796 0.047866084 0.004007078
-0.002603939 -0.0005488843 0.019703597 0.034715693 -0.053317793 -0.04345156 0.0253529 -0.07860862
-0.04897725 -0.039596282 -0.026007943 0.038473435 -0.048819505 0.0045904294 0.048507124 0.10714716
-0.037261248 0.05943858 0.0048187897 0.0556736 0.023315703 0.036981888 -0.018314242 0.05845274
0.021064974 0.005414376 0.061656408 -0.0523571 0.047625788 -0.030527957 0.028252691 -0.046579257
0.03988336 -0.007993199 -0.00519643 0.029338457 -0.07920748 -0.048465576 -0.001398366 0.053471684
-0.04009349 0.016345344 -0.03336525 -0.06308713 0.04596234 -0.048875295 -0.051777795 -0.012315363
0.05960554 -0.055675756 -0.01293825 0.061604135 0.046169445 -0.05128257 0.054460354 0.052140705
-0.028367966 -0.03479685 0.028849408 -0.016576901 -0.04610961 -0.0056989715 0.0015464053 0.045429617
-0.017888896 0.041419886 -0.053743757 -0.046050012 0.03124534 -0.020813331 -0.039560862 -0.08170879
-0.047389876 -0.042819556 -0.060913682 -0.021604527 -0.0128248995 0.051807925 -0.0379851 0.0287243
-0.015124658 0.033161327 0.044125564 -0.037407774 -0.07158851 0.030280374 0.030860275 0.030066816
-0.039603483 0.015007213 -0.013353512 -0.02867882 0.005012879 -0.0013796166 0.06719618 0.046479627
-0.03335005 0.010042384 0.029802963 0.053278677 -0.096963026 -0.02797541 -0.01712543 0.021653354
0.03157688 -0.043776773 -0.03134481 -0.019012732 0.020381019 -0.02919934 -0.03176961 -0.0058948323
-0.026871294 -0.026839295 -0.047656864 0.0076669725 -0.029611861 0.013227142 -0.039389152 -0.03587305
0.04536014 0.030669726 -0.041285455 -0.09688137 -0.036613457 -0.019288361 0.00011656129 -0.029557027
0.021893466 0.04634086 -0.053965695 0.019093623 0.03537094 -0.034314677 -0.0007246189 0.03529942
0.060977608 -0.07883684 -0.049859583 -0.045380875 -0.058577646 0.038796853 -0.010890178 0.004535958
0.014367901 0.03138399 0.034145523 -0.061982706 0.04886201 0.05531297 -0.03973554 -0.0033287928
-0.017707111 0.013778999 0.008086714 0.018096456 0.01780043 -0.08632785 -0.010299221 -0.07355643
0.039038118 -0.05360375 0.038939074 -0.05094976 -0.004148645 0.04916385 -0.024871595 0.05842743

bias f4 [128]
00000000: 9ff6 58bd 2baf 153d a2d9 3e3d 15cf 6c3d
00000010: 384e db3a 8e5a 1cbd 9b67 6b3b 263b 54bd
00000020: 6c33 d639 9f87 663c 8def 5d3d 691d c53c
00000030: 0fb6 903d 4aac 893b ce86 0f3d e0a4 8d3c
00000040: 02e8 0e3d 0db4 ee3c 9502 c53b 6985 503d
00000050: 704c b8bc 9f27 1e3d 5b1a c23c fe0c 5bbc
00000060: 83a7 40bd 25a7 8b3b 1648 2c3d fdf8 dfbb
00000070: e936 41bb c1fe 8bbd beb0 273d 5bae c6bc
00000080: 29e2 49bd 3f17 c43c d656 bcbc b9a0 c3bc
00000090: 0abb b6bb b715 943d 141a 383d 5933 24bc
000000a0: 2bda d2bb 23f5 8b3d 0b83 3f3d e012 d63a
000000b0: b3d5 613d 618b 08bd 0b5c 1b3d f878 adbb
000000c0: a686 ec3c 724c 2c3d f010 1d3c fd28 4e3d
000000d0: 61e6 1b3d e888 893d 08b4 603d 3794 803d
000000e0: 579f 163d 4b40 843d df1e 8cbc 6e36 063d
000000f0: b917 873d 4156 bc3c 0e78 0b3c 5865 6cbb
00000100: 8a6c d23c a37a 55bc 73f7 b63c c42b 0d3d
00000110: 640e 94bd f687 813c 951a 05bd b772 d4bc
00000120: b05e 31bc 2fff 0abd a225 d639 b8f6 febc
00000130: 3f7d dabb 12b9 f9bc 5ecf 8c3d f5c8 ad3c
00000140: 22f4 bb3c ef8c fe3c 1574 903d c68c d3bc
00000150: c9f1 84bc c75d 033b 53cc 7aba 1eee 02bc
00000160: 989d e83c 4ab5 013d 4785 d3bc 8ea9 24bc
00000170: 37b3 643a 8fc0 53bd cae8 8f3d 4da1 0d3d
00000180: 22b0 c03d cb09 3dbd ea2e 3d3d 7f0e 22bc
00000190: 2ecf 723c 8f21 293d 8a93 873b e779 a53c
000001a0: f697 c23d 0e54 33bc 0b4f e7bc 4550 76bd
000001b0: e2c7 60bd e2cf 65bc 7655 ecbc 635a 343c
000001c0: e668 d9bc 9132 9cbc 5963 c43b c5cd 10bc
000001d0: d67d 373d a618 f43c 8bed 6fba efd9 9a3c
000001e0: 0569 c83c bd44 f9bc bf52 893d 305d 13bd
000001f0: 58d5 e23c e459 d33c c47d 47bd 0428 96bc
-0.05296957 0.036544006 0.04659427 0.057814676 0.0016731685 -0.038172297 0.0035919908 -0.05181422
0.00040855573 0.0140704205 0.05418353 0.024061875 0.07065975 0.0042014467 0.03504067 0.017290533
0.03488923 0.02913859 0.0060122707 0.05090848 -0.022497386 0.038612004 0.023694208 -0.013369797
-0.04703475 0.0042618685 0.042060934 -0.0068351016 -0.0029482192 -0.068357 0.04094004 -0.024253061
-0.04928795 0.023936866 -0.022990625 -0.02388035 -0.005576496 0.07230704 0.044946745 -0.010022008
-0.006434699 0.068338655 0.04675583 0.001633253 0.05513544 -0.033336047 0.037929576 -0.0052939616
0.0288728 0.04206509 0.009586558 0.05033206 0.038061503 0.06715566 0.05485919 0.0627827
0.036773052 0.064575754 -0.017104564 0.032766752 0.065963216 0.022990348 0.00851251 -0.0036071148
0.025686521 -0.013029727 0.02233479 0.034465566 -0.07229307 0.015811902 -0.032496054 -0.025933607
-0.010825798 -0.03393477 0.000408453 -0.031123504 -0.0066677625 -0.030483756 0.0687549 0.021213988
0.02294356 0.031073062 0.07053391 -0.025823962 -0.016228573 0.002004491 -0.000956719 -0.007991342
0.028395459 0.03166703 -0.025820388 -0.010050191 0.0008724215 -0.05169731 0.07026823 0.034577657
0.09408595 -0.046151917 0.04618732 -0.009891151 0.014819903 0.04129177 0.004137461 0.02019973
0.095016405 -0.010945333 -0.028235933 -0.060135145 -0.054878123 -0.014026614 -0.028849345 0.011007878
-0.026539277 -0.01906708 0.0059932885 -0.008838122 0.04479774 0.02979691 -0.0009152523 0.018902747
0.02446414 -0.030428285 0.06705236 -0.035977542 0.02768962 0.0257997 -0.048703924 -0.018329628

weight f4 [9, 128]
00000000: e55b 3fbc 4cbe 2a3d 84d5 91bd 5c95 1dbe
00000010: 76f1 2abd 8979 0dbe 9d02 4fbd 0acc 4cbd
00000020: 19df dfbd 5936 4ebd 00ce 7bbd c38a 98bc
00000030: 852f d9bd 9d1d a03d dd48 8c3d e3ac 92bd
00000040: 38ed b4bd 2a81 09bb b27e fa3b c9ab 873d
00000050: 7e25 c9bc 006f e0bd fe87 c7bc 0134 c1bd
00000060: 66b9 22bd 8121 abbd cdaa 88bd 0c9f d4bd
00000070: 1286 86bd 4f15 f2bd afb2 f1bc abe0 423d
00000080: 24c8 7e3c 3d94 683d 5275 d0bd f62d a0bd
00000090: 0b8e ae3d bf2d 10be 2650 c8bd cf68 b8bb
000000a0: e2c3 23bd f9e8 003d b9dd 87bd 950c ba3d
000000b0: a21a 6abd 2f54 90bc 1730 c2bd b102 3fbd
000000c0: 79b2 33bd 9f84 8d3d 184f 77bd ebd4 3b3d
000000d0: a04c a4bd 65f6 67bd a3be dfbd a4a2 7bbd
000000e0: 4921 c23c cb5a 43bd ee28 58bd 7a67 b33d
000000f0: 1f92 1f3d 2368 c23d 837f 51bd b5a1 afbd
00000100: 0d94 9bbd d75b ed3d 3ac0 eebd a3a8 f83d
00000110: 4802 b83b ac42 22be f835 01be 3ec9 8d3d
00000120: c700 4e3d 4833 f4bc 1396 a83d 6267 5f3d
00000130: 5c69 3b3d 1a68 533d 52eb a2bd 75f6 eabd
00000140: 21fd 163e dc2e 2ebd ad91 5f3d b85e e3ba
00000150: ff30 513d 14a3 d1bc d3bf c53d ee8e 32bd
00000160: acaa b73d 9be4 9e39 7c7c a3bd e552 32bd
00000170: 9b0d f1bd 9f02 923d a51f e0bd 2157 ce3c
00000180: 84f9 3d3b 8d86 f1bd 1b6c a93d b2e8 89bd
00000190: e951 5e3d 44c1 b3bd 55e7 09bd 3462 6ebd
000001a0: e212 1abe 31c7 a53d fabf 7abd ee6f 9c3c
000001b0: d274 1f3d 8ce1 cabc 48e7 d03d a0b1 25bc
000001c0: 82b4 e1bc f701 5bbd 6401 5e3d a96a 713c
000001d0: 3a78 96bd 0d33 36bd ab03 883d 4397 2d3c
000001e0: 8800 473d a418 a03d 17af 06be d983 153d
000001f0: 2c23 9e3d 6674 853d eb5e babd ee53 853d
00000200: 95d2 383d c701 c3bd c0cd 5dbd 3722 e13d
00000210: 7939 c63d 7069 353d a7d9 32bd 1898 fdbc
00000220: e9c8 953d 911b c13d 255e 00be 9199 59bd
00000230: 9125 94bd 88c7 c7bd 6270 48bc 2e6b 933c
00000240: 261b 273d 8a55 4d3d 9fad dcbd 8202 03be
00000250: 211b f23c 363f 893d 4c7d 2a3d 1b2e c03d
00000260: 994e b13d 5e42 5c3d 7ccd 843c fbdf 863d
00000270: 4797 cd3d 366a 683d 12c8 a9bc 958e 7ebd
00000280: 1fe2 39bd ed1e cfbd cf1b b53d eabe c83d
00000290: 3b4f 2dbd f49f 2d3c c7af 5cbb 67af 0b3e
000002a0: d031 87bd 7b34 e0bc 812c 503d 5545 e5bd
000002b0: 6507 e4bd 1a51 2d3d 602a cdbd 8c5a 7f3d
000002c0: 28ea b8bc 443b ffbd 5033 b53d f81b cdbd
000002d0: 380f a63d 4000 b6bd 82ed 1fbd f142 00bd
000002e0: 38cc b2bd eaff 473c 02bc bbbd 9f99 2ebe
000002f0: afe0 fbbd f7ba 23bd 0349 e4bd 5aa0 423d
00000300: 1235 663d 14cd 3bbc df75 3eba e611 0ebc
00000310: 08b0 d43d af21 b6bc db8b e0bb 77ea 1bbe
00000320: 27e2 293d 3db4 87bd 6c68 32bd 9737 e7bd
00000330: 3eb8 5fbd 4c36 faba c8cb 49bd de84 8f3d
00000340: 40ed 0c3d 0b2e c93d 1301 a4bd 549d 04be
00000350: 7488 9fbd c9fd 97bc 0ed9 c9bd 67fd 543d
00000360: 6f33 d5bd 4cc0 f4bb 5ae2 45bd 5fd0 bbbd
00000370: 2aff a03d 0ece c3bc 28f8 97bd e6e7 c23d
00000380: c283 19be 7ebe d9bd b3c7 22be b4ab 24bd
00000390: 436e 85bd 521a 16bd af3c 953d dee4 57bd
000003a0: a3ec ab3d 3781 6e3d 7da3 afbd 7410 ce3d
000003b0: 5a64 3cbd 70c1 94bd 81e0 7d3d c5bf 9fbd
000003c0: 1cf2 e43d d4fa 9bbd 8391 b1bd 0dd9 2cbe
000003d0: 5b7c 3c3d 5252 02bc eb0c f6bc c411 edbc
000003e0: 4487 033c d269 bebc 8ca7 b03c 7f1f 2d3d
000003f0: 8f90 adbd 620f a6bc 0d02 f53c 67f2 88bd
-0.011679624 0.041685387 -0.07120803 -0.15389007 -0.04173418 -0.13815893 -0.0505396 -0.049999274
-0.109312244 -0.0503448 -0.061475754 -0.018620854 -0.10604767 0.07818148 0.06849835 -0.07161882
-0.088343084 -0.0020981529 0.007644498 0.06624562 -0.02455401 -0.109586716 -0.024356838 -0.09433747
-0.03972759 -0.08356 -0.06673203 -0.10381898 -0.06568541 -0.118204705 -0.029504148 0.04757754
0.015550647 0.056781996 -0.10178627 -0.07821266 0.08523186 -0.14079951 -0.09780912 -0.0056277285
-0.03998173 0.03147218 -0.06634087 0.09084431 -0.057154305 -0.017618267 -0.09481829 -0.046633426
-0.043871377 0.06910061 -0.060378164 0.04585735 -0.080224276 -0.056631465 -0.10925033 -0.061434403
0.023697512 -0.04769401 -0.05277341 0.08759971 0.03895771 0.09492519 -0.051146995 -0.08575765
-0.07596598 0.11589783 -0.11657758 0.1214154 0.0056155063 -0.15845746 -0.12618244 0.069231495
0.05029371 -0.029809609 0.082317494 0.054541953 0.045754775 0.05161295 -0.0795504 -0.11472789
0.14744999 -0.042525157 0.054582287 -0.0017346954 0.051072117 -0.025590457 0.09655728 -0.04359334
0.089681 0.00030306433 -0.07982728 -0.043536086 -0.11770173 0.07129406 -0.10943536 0.02518803
0.0028987834 -0.11793242 0.082725726 -0.06733836 0.054277334 -0.08777097 -0.03366788 -0.058199123
-0.15046266 0.08094633 -0.06121824 0.019096341 0.038929768 -0.024765752 0.102003634 -0.01011315
-0.027551893 -0.05346867 0.054200545 0.014734902 -0.0734715 -0.04448228 0.066413246 0.010595146
0.04858449 0.078172 -0.13152729 0.036502693 0.07721552 0.06516342 -0.091001354 0.06510149
0.0451227 -0.095218234 -0.054151297 0.10992854 0.09678931 0.044290006 -0.0436646 -0.030956313
0.07313711 0.09429086 -0.12535913 -0.053124968 -0.07233728 -0.097548544 -0.012233825 0.017995443
0.040797375 0.050130405 -0.10775303 -0.12793925 0.029553952 0.0670151 0.0416234 0.09383794
0.086575694 0.05377423 0.016211264 0.0658569 0.100386195 0.056741916 -0.020725284 -0.062147696
-0.04538166 -0.101133205 0.08843195 0.09802039 -0.04231189 0.010597218 -0.0033674107 0.1364113
-0.06601298 -0.027368775 0.050823692 -0.11194865 -0.11134223 0.042313673 -0.10017848 0.06234221
-0.022572592 -0.12462476 0.08847678 -0.100151 0.081083715 -0.088867664 -0.039044864 -0.03131384
-0.08730358 0.012207011 -0.09166719 -0.1705079 -0.12298714 -0.039973225 -0.111467384 0.047516204
0.056202956 -0.011462469 -0.0007265489 -0.0086712595 0.10385138 -0.022232858 -0.0068526096 -0.1522616
0.04147544 -0.066261746 -0.043556616 -0.112899 -0.054619066 -0.0019089668 -0.049266607 0.07007764
0.034405947 0.09823235 -0.080080174 -0.12950641 -0.07789698 -0.018553631 -0.09855853 0.051999476
-0.10410201 -0.0074692126 -0.04831157 -0.09170603 0.07861169 -0.023901965 -0.07420379 0.09516887
-0.14991668 -0.106320366 -0.15896492 -0.04020281 -0.065151714 -0.036646195 0.07286965 -0.0527085
0.08394744 0.058228698 -0.08576105 0.10061732 -0.04599414 -0.07263458 0.06198168 -0.07800249
0.11178991 -0.07616201 -0.08670332 -0.16879673 0.046017032 -0.007954197 -0.030035457 -0.028939135
0.008027855 -0.023243818 0.021564268 0.042266365 -0.08474838 -0.020271007 0.029908204 -0.066868596

bias f4 [9]
00000000: b176 fcbc 92b8 6fbd aa27 223d 601c 9cbc
00000010: efa8 8a3c db01 0fbe 3c3b c2bb d835 8e3c
00000020: e7fa 433d
-0.030818315 -0.05852563 0.039588608 -0.019056499 0.016926257 -0.13965552 -0.0059274714 0.01735966
0.0478467
